/// Stacked CNN (4 encoder layers, 4 decoder layers)
/// Result Network:
//
//ParalleledChildNet(
//  (module): ChildNet(
//    (encoder): ChildEncoder(
//      (embed_tokens): Embedding(24898, 512, padding_idx=0)
//      (embed_positions): LearnedPositionalEmbedding(1024, 512, padding_idx=0)
//      (layer_0): EncoderConvLayer(
//        (preprocessors): ModuleList(
//        )
//        (postprocessors): ModuleList(
//        )
//        (conv): Conv1d (512, 64, kernel_size=(5,), stride=(1,))
//      )
//      (projection_0): Linear(in_features=512, out_features=32)
//      (layer_1): EncoderConvLayer(
//        (preprocessors): ModuleList(
//        )
//        (postprocessors): ModuleList(
//        )
//        (conv): Conv1d (32, 64, kernel_size=(5,), stride=(1,))
//      )
//      (layer_2): EncoderConvLayer(
//        (preprocessors): ModuleList(
//        )
//        (postprocessors): ModuleList(
//        )
//        (conv): Conv1d (32, 128, kernel_size=(3,), stride=(1,))
//      )
//      (projection_2): Linear(in_features=32, out_features=64)
//      (layer_3): EncoderConvLayer(
//        (preprocessors): ModuleList(
//        )
//        (postprocessors): ModuleList(
//        )
//        (conv): Conv1d (64, 128, kernel_size=(3,), stride=(1,))
//      )
//      (fc2): Linear(in_features=64, out_features=512)
//    )
//    (decoder): ChildDecoder(
//      (embed_tokens): Embedding(24898, 512, padding_idx=0)
//      (embed_positions): LearnedPositionalEmbedding(1024, 512, padding_idx=0)
//      (layer_0): DecoderConvLayer(
//        (preprocessors): ModuleList(
//        )
//        (postprocessors): ModuleList(
//        )
//        (conv): Conv1d (512, 64, kernel_size=(5,), stride=(1,), padding=(4,))
//      )
//      (projection_0): Linear(in_features=512, out_features=32)
//      (attention_0): EncDecAttention(
//        (linears): ModuleList(
//          (0): Linear(in_features=32, out_features=512)
//          (1): Linear(in_features=512, out_features=512)
//          (2): Linear(in_features=512, out_features=512)
//          (3): Linear(in_features=512, out_features=32)
//        )
//        (dropout): Dropout(p=0.1)
//      )
//      (layer_1): DecoderConvLayer(
//        (preprocessors): ModuleList(
//        )
//        (postprocessors): ModuleList(
//        )
//        (conv): Conv1d (32, 64, kernel_size=(5,), stride=(1,), padding=(4,))
//      )
//      (attention_1): EncDecAttention(
//        (linears): ModuleList(
//          (0): Linear(in_features=32, out_features=512)
//          (1): Linear(in_features=512, out_features=512)
//          (2): Linear(in_features=512, out_features=512)
//          (3): Linear(in_features=512, out_features=32)
//        )
//        (dropout): Dropout(p=0.1)
//      )
//      (layer_2): DecoderConvLayer(
//        (preprocessors): ModuleList(
//        )
//        (postprocessors): ModuleList(
//        )
//        (conv): Conv1d (32, 128, kernel_size=(3,), stride=(1,), padding=(2,))
//      )
//      (projection_2): Linear(in_features=32, out_features=64)
//      (attention_2): EncDecAttention(
//        (linears): ModuleList(
//          (0): Linear(in_features=64, out_features=512)
//          (1): Linear(in_features=512, out_features=512)
//          (2): Linear(in_features=512, out_features=512)
//          (3): Linear(in_features=512, out_features=64)
//        )
//        (dropout): Dropout(p=0.1)
//      )
//      (layer_3): DecoderConvLayer(
//        (preprocessors): ModuleList(
//        )
//        (postprocessors): ModuleList(
//        )
//        (conv): Conv1d (64, 128, kernel_size=(3,), stride=(1,), padding=(2,))
//      )
//      (attention_3): EncDecAttention(
//        (linears): ModuleList(
//          (0): Linear(in_features=64, out_features=512)
//          (1): Linear(in_features=512, out_features=512)
//          (2): Linear(in_features=512, out_features=512)
//          (3): Linear(in_features=512, out_features=64)
//        )
//        (dropout): Dropout(p=0.1)
//      )
//      (fc2): Linear(in_features=64, out_features=256)
//      (fc_last): Linear(in_features=256, out_features=24898)
//    )
//  )
//)

[
    [
        [1, 2, 2, 0, 2, 6],
        [1, 2, 2, 0, 2, 6],
        [1, 3, 1, 0, 2, 6],
        [1, 3, 1, 0, 2, 6]
    ],
    [
        [1, 2, 2, 0, 2, 6],
        [1, 2, 2, 0, 2, 6],
        [1, 3, 1, 0, 2, 6],
        [1, 3, 1, 0, 2, 6]
    ]
]
