…
//        (postprocessors): ModuleList(
//        )
//        (conv): Conv1d (256, 512, kernel_size=(3,), stride=(1,))
//      )
//      (layer_2): EncoderConvLayer(
//        (preprocessors): ModuleList(
//          (0): Dropout(p=0.1)
//        )
//        (postprocessors): ModuleList(
//        )
//        (conv): Conv1d (256, 512, kernel_size=(3,), stride=(1,))
//      )
//      (layer_3): EncoderConvLayer(
//        (preprocessors): ModuleList(
//          (0): Dropout(p=0.1)
//        )
//        (postprocessors): ModuleList(
//        )
//        (conv): Conv1d (256, 512, kernel_size=(3,), stride=(1,))
//      )
//      (fc2): Linear(in_features=256, out_features=256)
//    )
//    (decoder): ChildDecoder(
//      (embed_tokens): Embedding(24898, 256, padding_idx=0)
//      (embed_positions): LearnedPositionalEmbedding(1024, 256, padding_idx=0)
//      (layer_0): DecoderConvLayer(
//        (preprocessors): ModuleList(
//          (0): Dropout(p=0.1)
//        )
//        (postprocessors): ModuleList(
//        )
//        (conv): Conv1d (256, 512, kernel_size=(3,), stride=(1,), padding=(2,))
//      )
//      (attention_0): EncDecAttention(
//        (linears): ModuleList(
//          (0): Linear(in_features=256, out_features=256)
//          (1): Linear(in_features=256, out_features=256)
//          (2): Linear(in_features=256, out_features=256)
//          (3): Linear(in_features=256, out_features=256)
//        )
//        (dropout): Dropout(p=0.1)
//      )
//      (layer_1): DecoderConvLayer(
//        (preprocessors): ModuleList(
//          (0): Dropout(p=0.1)
//        )
//        (postprocessors): ModuleList(
//        )
//        (conv): Conv1d (256, 512, kernel_size=(3,), stride=(1,), padding=(2,))
//      )
//      (attention_1): EncDecAttention(
//        (linears): ModuleList(
//          (0): Linear(in_features=256, out_features=256)
//          (1): Linear(in_features=256, out_features=256)
//          (2): Linear(in_features=256, out_features=256)
//          (3): Linear(in_features=256, out_features=256)
//        )
//        (dropout): Dropout(p=0.1)
//      )
//      (layer_2): DecoderConvLayer(
//        (preprocessors): ModuleList(
//          (0): Dropout(p=0.1)
//        )
//        (postprocessors): ModuleList(
//        )
//        (conv): Conv1d (256, 512, kernel_size=(3,), stride=(1,), padding=(2,))
//      )
//      (attention_2): EncDecAttention(
//        (linears): ModuleList(
//          (0): Linear(in_features=256, out_features=256)
//          (1): Linear(in_features=256, out_features=256)
//          (2): Linear(in_features=256, out_features=256)
//          (3): Linear(in_features=256, out_features=256)
//        )
//        (dropout): Dropout(p=0.1)
//      )
//      (fc2): Linear(in_features=256, out_features=256)
//      (fc_last): Linear(in_features=256, out_features=24898)
//    )
//  )
//)

{
    "Global": {
        "Dropout": 1
    },
    "Layers": [
        [
            [1, 2, 1, 0, 1, 0],
            [1, 2, 1, 0, 1, 0],
            [1, 2, 1, 0, 1, 0],
            [1, 2, 1, 0, 1, 0]
        ],
        [
            [1, 2, 1, 0, 1, 0],
            [1, 2, 1, 0, 1, 0],
            [1, 2, 1, 0, 1, 0]
        ]
    ]
}
